HFM_Test.pth (torch, 44599 bytes, 24 tensors)

input.weight f4 [30, 3]
-0.051718507 -0.27614927 0.18375017 0.7004702 -0.5115802 -0.1169125 0.24000812 0.10301639
0.5255284 -0.17332453 0.44743183 0.24532442 0.15002464 0.0628445 0.29929316 -0.5191896
0.5746626 0.4199037 0.17995773 -0.5305211 0.46794957 0.3938725 -0.23202355 -0.08913672
-0.83065635 0.2594393 0.5385703 0.33532876 -0.15963249 -0.13189226 -0.3274136 -0.0740928
-0.09332008 0.30927387 0.3665588 -0.5390944 -0.41945642 -0.55916965 0.07133687 -0.06788058
0.5766051 -0.16271912 -0.09458844 -0.010504062 -0.01951596 -0.23917027 -0.31062022 -0.06701053
-0.07717934 0.60598326 0.15146488 -0.4954117 -0.18340826 0.4586941 0.36516505 -0.62258166
0.13752364 -0.41989422 0.5402039 -0.17451282 0.30149812 -0.13753112 -0.44246662 0.10957899
0.059411414 -0.33602655 0.4614627 -0.3032526 -0.47835943 0.34785601 -0.18972418 -0.2630424
-0.13188292 -0.14444226 -0.22438018 -0.033313096 0.6116482 -0.13632293 0.18535382 -0.17732565
-0.27505183 -0.5801963 -0.28104687 0.42182988 0.37123415 0.25559086 -0.10038231 0.73845464
-0.49800757 0.4778618
00000000: c9d6 53bd 7063 8dbe 0129 3c3e 0452 333f
00000010: ecf6 02bf d26f efbd b0c4 753e 42fa d23d
00000020: 0789 063f fc7b 31be c915 e53e 5336 7b3e
00000030: 0fa0 193e 9eb4 803d f43c 993e 9ce9 04bf
00000040: 171d 133f 9efd d63e d746 383e 3bd0 07bf
00000050: 1697 ef3e a8a9 c93e 9597 6dbe 508d b6bd
00000060: e5a5 54bf 3ad5 843e bedf 093f 36b0 ab3e
00000070: b376 23be c40e 07be c1a2 a7be f7bd 97bd
00000080: 991e bfbd 2559 9e3e 98ad bb3e 1702 0abf
00000090: fec2 d6be be25 0fbf 1119 923d f904 8bbd
000000a0: 649c 133f d79f 26be 96b7 c1bd 3b19 2cbc
000000b0: efdf 9fbc 0de9 74be 9d09 9fbe d13c 89bd
000000c0: 3410 9ebd b821 1b3f 9c19 1b3e 9aa6 fdbe
000000d0: 60cf 3bbe f4d9 ea3e eaf6 ba3e 8361 1fbf
000000e0: ffd2 0c3e 60fc d6be ce4a 0a3f 7db3 32be
000000f0: f65d 9a3e f5d4 0cbe fc8a e2be f36a e03d
00000100: 6259 733d ac0b acbe d744 ec3e ed43 9bbe
00000110: 87eb f4be 2f1a b23e 0e47 42be 7ead 86be
00000120: 510c 07be ace8 13be ebc3 65be 5073 08bd
00000130: fa94 1c3f 3d98 0bbe 64cd 3d3e db94 35be
00000140: 98d3 8cbe bf87 14bf 60e5 8fbe 16fa d73e
00000150: 6712 be3e cedc 823e 3e95 cdbd 5d0b 3d3f
00000160: d9fa febe 4daa f43e

input.bias f4 [30]
0.5195116 -0.19855821 -0.29380405 -0.257148 -0.6595127 0.49929816 0.2290707 0.15418124
0.6280977 -0.44428495 0.37412846 -0.30062425 0.4976014 0.3899618 0.1529451 -0.10488582
0.46543267 -0.34762505 0.5883532 0.087273784 -0.5721757 -0.57790786 0.2616198 -0.2445183
0.26403862 0.48804396 -0.38079515 0.3299468 -0.2345622 0.090313114
00000000: b6fe 043f d852 4bbe 7c6d 96be e7a8 83be
00000010: d3d5 28bf 02a4 ff3e 8291 6a3e b0e1 1d3e
00000020: 03cb 203f 5179 e3be c48d bf3e 6ceb 99be
00000030: 9cc5 fe3e 13a9 c73e a49d 1c3e 60ce d6bd
00000040: 314d ee3e e9fb b1be 519e 163f 99bc b23d
00000050: 1b7a 12bf c5f1 13bf 08f3 853e 0163 7abe
00000060: 1230 873e e6e0 f93e 95f7 c2be c9ee a83e
00000070: 1331 70be 15f6 b83d

hidden.0.weight f4 [30, 30]
-0.026179807 -0.058234468 -0.09737476 -0.05220864 -0.11209133 0.0041326047 -0.14647979 0.09279045
-0.05134966 0.027237045 -0.022553109 -0.11154831 0.042056322 -0.07187067 -0.04617261 0.22794014
-0.13531908 0.08480046 0.05019568 -0.104727395 -0.109213494 0.0048877937 -0.00259146 0.0902215
-0.0912075 -0.05892513 0.21720207 -0.036535867 -0.0824277 0.072737455 0.07179611 -0.04103053
-0.12798485 -0.064594164 0.14996886 0.116986014 0.015803242 0.22289169 -0.09103125 -0.054308333
-0.21982881 -0.055743337 0.007992701 0.08641365 -0.19515319 -0.16557176 -0.2047907 -0.12703776
0.07365465 0.051725697 -0.038204897 0.078499444 -0.11789577 0.05828173 0.08762998 0.0048113465
-0.03386559 -0.06318994 -0.0070618303 0.057570312 0.14711912 -0.0068104477 -0.06578239 -0.103800446
0.09391723 0.025469372 -0.1826155 0.29505458 -0.05038413 0.17268494 -0.24182123 0.045825776
0.06747723 0.20210695 -0.31554964 -0.16248885 0.13773426 0.04040502 -0.03747006 0.27376458
-0.051903926 -0.020336531 0.100306496 -0.21659939 -0.20064753 0.009905576 -0.06376441 -0.102177404
0.11775972 -0.005230993 -0.21010748 0.0669847 -0.2966811 0.1362736 -0.053703673 0.2987199
-0.08229638 -0.099116825 0.33802876 0.13083003 -0.05608723 0.18080534 0.14461033 0.14134715
0.07850733 0.057311263 -0.04537405 0.09627603 -0.13458993 -0.080874965 0.09235267 -0.06829536
-0.19841078 0.26860523 -0.028940141 -0.18785673 0.06870047 -0.020347938 -0.19585684 -0.11484629
0.07384355 0.060501795 0.007966119 -0.06446843 0.060875643 0.017953003 0.036150422 -0.055512376
-0.1291369 0.10269871 -0.055182487 0.04406312 -0.16783941 0.19544242 0.1943273 0.059697773
0.12122359 0.1796496 0.0015607086 0.10486386 0.13979222 -0.05093956 -0.054059885 0.16756867
-0.049517643 0.1575062 0.093111746 0.10912639 -0.026927121 0.08260853 0.15602158 0.038230892
0.04688668 -0.12638234 0.091355726 0.13856366 0.246981 -0.21823983 0.2294052 0.11927591
-0.1461096 0.12715319 0.084991835 0.026238278 0.091320455 -0.0009380112 -0.14198357 0.0876952
-0.14853556 -0.09439537 -0.10063446 -0.01068052 0.093458675 0.13244475 0.10450263 -0.13538317
0.09790739 -0.13826324 -0.19813542 -0.08112755 -0.08970006 0.04282937 -0.062158473 -0.16106527
0.101877935 -0.058843907 0.09481556 0.21633853 -0.19125319 -0.08109087 -0.17395341 -0.16732703
-0.17313467 -0.039424565 -0.22744742 0.092958316 0.08187167 -0.085265175 0.04190941 0.056409527
-0.054819994 -0.047450338 -0.02336173 0.007781337 -0.004522129 -0.02753362 -0.19156103 -0.17825983
-0.05307771 -0.013754532 -0.009307487 0.13343038 -0.05953364 0.027013218 0.10632657 -0.13528009
0.0689838 0.1619258 0.108489886 -0.11435806 0.16937801 -0.046045057 -0.14010309 0.043550864
0.023261571 -0.03133895 0.036079135 -0.040248144 -0.1569018 0.05411589 -0.032438137 0.06242144
0.037065268 -0.04683158 -0.14280815 0.16116081 -0.09050477 -0.050666995 -0.17660996 0.021835828
-0.073309995 -0.1253003 -0.12707654 0.0607439 0.16280244 -0.13718772 -0.18242264 -0.15050289
-0.15810643 0.109077826 0.008120306 -0.06075793 0.134657 0.10594228 0.05336577 -0.05294214
00000000: 0977 d6bc 4487 6ebd 6b6c c7bd bad8 55bd
00000010: 2490 e5bd cd6a 873b ccfe 15be eb08 be3d
00000020: 0554 52bd 3920 df3c 4cc1 b8bc 7173 e4bd
00000030: 4043 2c3d ee30 93bd 7e1f 3dbd 2469 693e
00000040: 1691 0abe ddab ad3d fc99 4d3d 517b d6bd
00000050: 53ab dfbd c929 a03b 7cd5 29bb 0dc6 b83d
00000060: ffca babd 7a5b 71bd 386a 5e3e a2a6 15bd
00000070: dbcf a8bd 60f7 943d d709 933d a10f 28bd
00000080: 760e 03be f249 84bd 7091 193e 5d96 ef3d
00000090: cd75 813c b83d 643e 986e babd 6a72 5ebd
000000a0: ce1a 61be 2053 64bd d1f3 023c a4f9 b03d
000000b0: 3dd6 47be a58b 29be a7b4 51be 3016 02be
000000c0: 40d8 963d 53de 533d bd7c 1cbd 51c4 a03d
000000d0: 5673 f1bd d3b8 6e3d 5977 b33d 80a8 9d3b
000000e0: a5b6 0abd ba69 81bd ed66 e7bb d9ce 6b3d
000000f0: 65a6 163e 2d2a dfbb ebb8 86bd 5495 d4bd
00000100: ad57 c03d 25a5 d03c 8fff 3abe 6511 973e
00000110: 975f 4ebd 52d4 303e fc9f 77be cfb3 3b3d
00000120: 8131 8a3d 20f5 4e3e b98f a1be 7a63 26be
00000130: 360a 0d3e bc7f 253d 357a 19bd df2a 8c3e
00000140: 3699 54bd cc98 a6bc 7e6d cd3d 3bcc 5dbe
00000150: 8c76 4dbe ff4a 223c ea96 82bd 6342 d1bd
00000160: 022c f13d c068 abbb 6a26 57be 462f 893d
00000170: 96e6 97be 4e8b 0b3e 62f8 5bbd d1f1 983e
00000180: 018b a8bd c3fd cabd 1b12 ad3e 4ff8 053e
00000190: b9bb 65bd 0925 393e bb14 143e 4fbd 103e
000001a0: 73c8 a03d 37bf 6a3d 24da 39bd 5e2c c53d
000001b0: f1d1 09be c6a1 a5bd 6623 bd3d 70de 8bbd
000001c0: 322c 4bbe a086 893e e013 edbc 845d 40be
000001d0: d5b2 8c3d b8b0 a6bc b28e 48be 8834 ebbd
000001e0: 4a3b 973d bbd0 773d 5384 023c 0608 84bd
000001f0: bd58 793d 2d12 933c 7712 143d f260 63bd
00000200: 773c 04be b453 d23d 0807 62bd 887b 343d
00000210: 18de 2bbe 0f22 483e bcfd 463e a785 743d
00000220: 1344 f83d 11f6 373e b190 cc3a ddc2 d63d
00000230: b125 0f3e 00a6 50bd e66d 5dbd 1f97 2b3e
00000240: 03d3 4abd 4e49 213e 5fb1 be3d a87d df3d
00000250: 4496 dcbc a92e a93d 1fc4 1f3e ff97 1c3d
00000260: 3f0c 403d 5f6a 01be b618 bb3d a2e3 0d3e
00000270: 96e8 7c3e 437a 5fbe 32e9 6a3e ee46 f43d
00000280: c19d 15be 7234 023e 3310 ae3d a8f1 d63c
00000290: 3806 bb3d dee4 75ba 2464 11be 8b99 b33d
000002a0: b519 18be 5c52 c1bd 7119 cebd 59fd 2ebc
000002b0: 4367 bf3d 999f 073e 7a05 d63d e3a1 0abe
000002c0: ab83 c83d e194 0dbe 03e4 4abe 3326 a6bd
000002d0: aab4 b7bd d96d 2f3d e299 7ebd 4bee 24be
000002e0: 61a5 d03d 4f06 71bd a92e c23d d987 5d3e
000002f0: e0d7 43be f812 a6bd d820 32be c757 2bbe
00000300: 374a 31be a77b 21bd fae7 68be ee60 be3d
00000310: 56ac a73d 829f aebd 34a9 2b3d ad0d 673d
00000320: ee8a 60bd 495b 42bd 1961 bfbc 96fa fe3b
00000330: 5e2e 94bb 308e e1bc 9328 44be bf89 36be
00000340: 0368 59bd b05a 61bc 6e7e 18bc f9a1 083e
00000350: 8cd9 73bd d34a dd3c bfc1 d93d dd86 0abe
00000360: 6147 8d3d e0cf 253e f22f de3d 8f34 eabd
00000370: 6e71 2d3e be99 3cbd 2f77 0fbe 6462 323d
00000380: 0d8f be3c 455d 00bd b7c7 133d 3ddb 24bd
00000390: deaa 20be a0a8 5d3d dadd 04bd a0ad 7f3d
000003a0: c0d1 173d 79d2 3fbd 4d3c 12be 5707 253e
000003b0: 915a b9bd 3288 4fbd 3ed9 34be 0de1 b23c
000003c0: 8d23 96bd b94e 00be 5a20 02be 98ce 783d
000003d0: afb5 263e f07a 0cbe 00cd 3abe 6e1d 1abe
000003e0: a7e6 21be 3264 df3d 080b 053c 4fdd 78bd
000003f0: 86e3 093e 44f8 d83d 1196 5a3d dbd9 58bd

hidden.0.bias f4 [30]
-0.1549867 0.08856291 -0.11414662 -0.19450256 -0.034431137 -0.012054312 0.16703518 -0.055269238
-0.020649115 0.08777851 0.008848144 0.108148135 -0.10657244 -0.13961533 -0.05438835 0.092883974
-0.11310295 0.079969406 0.14031911 -0.11149763 0.17564197 -0.06957995 0.1264238 -0.091679454
0.11409642 0.108883545 0.110576615 0.19178827 -0.04828562 0.057679154
00000000: d5b4 1ebe 7960 b53d b4c5 e9bd ae2b 47be
00000010: aa07 0dbd 737f 45bc 450b 2b3e ff61 62bd
00000020: 5528 a9bc 38c5 b33d cef7 103c c57c dd3d
00000030: a742 dabd 52f7 0ebe 52c6 5ebd f439 be3d
00000040: 85a2 e7bd 00c7 a33d d0af 0f3e df58 e4bd
00000050: 7ddb 333e ef7f 8ebd 3e75 013e 70c2 bbbd
00000060: 62ab e93d 56fe de3d fe75 e23d 2564 443e
00000070: 24c7 45bd fa40 6c3d

hidden.1.weight f4 [30, 30]
0.07760244 -0.049294904 -0.08665899 0.08777482 -0.15104023 -0.09727364 0.016246544 -0.075176865
0.029712655 0.22401339 -0.1215749 0.004296216 -0.056976628 -0.20771381 0.25774837 -0.021149553
-0.054936662 0.17840847 -0.0028039527 -0.29221064 0.056718428 -0.20407072 -0.18619221 0.030937916
0.12517518 -0.06499507 0.059078712 -0.20999481 -0.16529222 -0.04643233 -0.0851017 -0.016165193
0.20549075 -0.12847564 -0.093001395 0.13994916 -0.019060705 -0.14544521 -0.25166848 0.21078269
0.1594915 0.13434514 0.117927484 0.35085782 0.28910154 0.16982235 0.043475132 -0.066559784
-0.2005712 0.09851197 -0.13277009 0.09999562 -0.054138716 0.21498665 -0.08459612 -0.1770735
-0.07282123 0.25864348 0.1611219 0.113582365 -0.19469911 0.18211846 0.17350402 -0.12127286
0.07854821 -0.087543964 0.027635014 -0.16710706 0.18417239 0.14089322 0.10002438 -0.119779825
0.040411502 0.21949948 -0.13258606 0.1620626 -0.1500024 0.0540402 0.20615216 -0.12065689
-0.010591165 0.039940733 0.1342913 0.10957105 -0.16414931 -0.024603961 0.13042597 0.06835694
-0.010692609 -0.005425831 -0.1248841 0.072427645 -0.04541685 0.18408275 -0.1625601 0.1930838
0.16622259 0.096050374 -0.11934385 -0.09942662 0.11456207 -0.06713939 0.09422577 -0.10132672
-0.09454813 -0.05126455 0.03374452 -0.16372856 -0.113759756 -0.14986914 -0.11202503 -0.0016552253
0.19380312 -0.019482832 -0.06375824 0.09668492 -0.13722691 0.19644284 -0.121408574 -0.13140407
-0.15080002 0.17961764 0.020776888 0.060179096 -0.013918574 -0.06895763 0.15423352 -0.16387136
-0.0024588322 -0.049706727 -0.12165846 0.1705433 0.04666627 0.12001308 0.0138091035 0.2310268
-0.092694655 0.09682508 -0.17890231 0.104634784 -0.019217616 0.13671754 -0.14002456 0.11661427
-0.08769125 -0.08095089 0.21191604 -0.046393085 -0.14625818 -0.08607178 -0.1272277 -0.06964314
0.16604501 0.06968336 0.077521525 -0.057157658 -0.14495571 0.073248215 0.19022828 0.19495228
-0.017967556 -0.10741538 0.18187311 -0.1682557 -0.11525729 0.07103857 -0.10577126 -0.13722672
-0.15719594 -0.16552447 0.16104984 0.060176197 -0.088889636 0.16510613 -0.10536976 -0.16443442
0.20414603 0.16629192 -0.049263157 -0.110048495 0.0068544922 -0.028451314 -0.11873238 -0.14037447
0.1063924 0.06960199 0.0807817 0.07622237 -0.16296221 0.07519414 -0.020761786 0.16690224
0.1968793 -0.31444812 0.23365285 -0.08093929 0.0014909124 -0.23968151 0.054178346 -0.22713695
-0.010634094 0.12980792 0.03637192 0.21456245 -0.14223042 0.089241445 0.14110227 -0.23522228
-0.15157981 -0.03761061 0.15760717 0.104594976 -0.081485465 0.15956447 -0.030250175 0.1956754
-0.076381125 -0.103244826 -0.050848957 0.1168954 0.21798633 0.07841069 -0.18575543 0.04993715
0.12128021 -0.16199622 0.05394433 0.074319035 0.1820984 -0.06432641 -0.0039698435 -0.053472437
-0.04820083 -0.17838047 -0.027180461 -0.12797421 0.038636766 0.088423274 0.051967666 -0.003548945
0.085684605 0.1881183 0.25353897 0.016078783 0.11832802 0.025973577 -0.062356006 -0.13080941
0.123137444 -0.17351197 0.034977123 0.27377927 -0.011735741 0.107165016 0.08084236 0.16526145
00000000: 07ee 9e3d 74e9 49bd 457a b1bd 49c3 b33d
00000010: 4aaa 1abe 6737 c7bd 7917 853c 54f6 99bd
00000020: f467 f33c c463 653e 43fc f8bd 46c7 8c3b
00000030: 5360 69bd eeb2 54be 98f7 833e d441 adbc
00000040: 4405 61bd b6b0 363e 85c2 37bb a29c 95be
00000050: 9551 683d eaf7 50be 2ca9 3ebe 8371 fd3c
00000060: ec2d 003e 231c 85bd 85fc 713d e108 57be
00000070: 5d42 29be d42f 3ebd cd49 aebd de6c 84bc
00000080: 2b6c 523e 1e8f 03be 8477 bebd d54e 0f3e
00000090: 3225 9cbc 97ef 14be b1da 80be 6bd7 573e
000000a0: bd51 233e c691 093e f783 f13d a3a3 b33e
000000b0: 1e05 943e e9e5 2d3e fb12 323d 7f50 88bd
000000c0: 8962 4dbe a5c0 c93d e2f4 07be 81ca cc3d
000000d0: 8fc0 5dbd 7625 5c3e bb40 adbd c152 35be
000000e0: 4c23 95bd eb6c 843e 24fd 243e df9d e83d
000000f0: 345f 47be 437d 3a3e 0aab 313e e85d f8bd
00000100: e2dd a03d 404a b3bd d362 e23c 1d1e 2bbe
00000110: b097 3c3e 5046 103e 95d9 cc3d 204f f5bd
00000120: 8886 253d 79c4 603e a4c4 07be bdf3 253e
00000130: 3b9a 19be 4259 5d3d 8d19 533e f61a f7bd
00000140: 9186 2dbc e598 233d a983 093e c966 e03d
00000150: c216 28be 3f8e c9bc 638e 053e b9fe 8b3d
00000160: 0d30 2fbc 2bcb b1bb 3cc3 ffbd f254 943d
00000170: 0507 3abd 3080 3c3e 2876 26be c2b7 453e
00000180: 4136 2a3e 0fb6 c43d 8c6a f4bd 2fa0 cbbd
00000190: 859f ea3d 6080 89bd 71f9 c03d 6284 cfbd
000001a0: 73a2 c1bd c7fa 51bd b237 0a3d 76a8 27be
000001b0: e0fa e8bd 4c77 19be 616d e5bd 25f4 d8ba
000001c0: 5374 463e 769a 9fbc ae93 82bd be02 c63d
000001d0: 3685 0cbe 5028 493e 0fa5 f8bd ca8e 06be
000001e0: 526b 1abe b0ed 373e 4b34 aa3c 5b7e 763d
000001f0: bb0a 64bc a839 8dbd 64ef 1d3e e5cd 27be
00000200: 5c24 21bb 4899 4bbd 1228 f9bd e7a2 2e3e
00000210: 2125 3f3d 6bc9 f53d 943f 623c 4a92 6c3e
00000220: b2d6 bdbd 3a4c c63d 2b32 37be c34a d63d
00000230: 436e 9dbc afff 0b3e 9962 0fbe 76d3 ee3d
00000240: 7897 b3bd 95c9 a5bd 8500 593e ad06 3ebd
00000250: b4c4 15be 6746 b0bd fa47 02be 10a1 8ebd
00000260: b407 2a3e 26b6 8e3d 9bc3 9e3d 261e 6abd
00000270: 456f 14be 2903 963d 34cb 423e 92a1 473e
00000280: b230 93bc 98fc dbbd f23c 3a3e 394b 2cbe
00000290: 040c ecbd ab7c 913d 9a9e d8bd 2985 0cbe
000002a0: f9f7 20be 3f7f 29be 40ea 243e 517b 763d
000002b0: c50b b6bd 9511 293e 1acc d7bd 7f61 28be
000002c0: a80b 513e 6e48 2a3e 2ac8 49bd 1b61 e1bd
000002d0: a69b e03b bb12 e9bc f629 f3bd 53be 0fbe
000002e0: 42e4 d93d 7d8b 8e3d e070 a53d 791a 9c3d
000002f0: 91df 26be 63ff 993d 9f14 aabc 6ce8 2a3e
00000300: ba9a 493e 58ff a0be b142 6f3e 80c3 a5bd
00000310: b86a c33a 126f 75be 1dea 5d3d 9796 68be
00000320: 9f3a 2ebc 5eec 043e b9fa 143d 42b6 5b3e
00000330: daa4 11be 38c4 b63d 1d7d 103e 1cde 70be
00000340: bd37 1bbe 950d 1abd c663 213e e435 d63d
00000350: dae1 a6bd de64 233e 37cf f7bc 225f 483e
00000360: b56d 9cbd 0672 d3bd ff46 50bd db66 ef3d
00000370: cf37 5f3e c995 a03d ac36 3ebe e68a 4c3d
00000380: c261 f83d 56e2 25be bbf4 5c3d 9434 983d
00000390: 0178 3a3e 91bd 83bd 7615 82bb ea05 5bbd
000003a0: 3c6e 45bd 5fa9 36be 8fa9 debc ac0b 03be
000003b0: 9641 1e3d 4317 b53d 0cdc 543d 6b95 68bb
000003c0: 697b af3d 15a2 403e dccf 813e a7b7 833c
000003d0: f655 f23d 8ac6 d43c 0369 7fbd e7f2 05be
000003e0: 7c2f fc3d 1fad 31be 2c44 0f3d cc2c 8c3e
000003f0: 4447 40bc 5579 db3d ae90 a53d 4c3a 293e

hidden.1.bias f4 [30]
0.09973995 0.036880236 -0.10570434 0.1246769 -0.13746691 0.032510143 -0.112277284 0.15984438
0.20032786 -0.1001896 0.034783047 0.026067475 0.10270855 0.16023107 0.010583973 -0.070156656
0.053612255 -0.042429566 0.04407115 -0.029651087 -0.087507665 0.10326742 -0.13870892 0.092764415
-0.12076168 -0.01531676 0.16602565 0.15313777 -0.1787503 0.15801768
00000000: 7544 cc3d bb0f 173d 847b d8bd 9a56 ff3d
00000010: 20c4 0cbe 5b29 053d a2f1 e5bd 3fae 233e
00000020: bf22 4d3e 3430 cdbd ab78 0e3d 758b d53c
00000030: dc58 d23d 9d13 243e 6668 2d3c 4bae 8fbd
00000040: 8698 5b3d a0ca 2dbd f383 343d d6e6 f2bc
00000050: 3837 b3bd de7d d33d b609 0ebe 45fb bd3d
00000060: e651 f7bd 26f3 7abc a102 2a3e 26d0 1c3e
00000070: 520a 37be 63cf 213e

hidden.2.weight f4 [30, 30]
-0.16451341 0.0048426096 0.033438396 -0.0030662357 -0.018470526 0.20554303 0.10938972 -0.00081698125
-0.083071694 0.036255013 0.079829216 0.1257861 0.15502557 -0.12450841 -0.0961636 -0.21051916
-0.04222362 0.034450185 -0.053466484 -0.21439996 -0.13059802 -0.04816891 0.17785385 -0.04673652
-0.12518598 0.13002962 0.03131975 -0.019658228 0.24228413 -0.057414167 -0.17420092 0.19746517
-0.114110604 0.29809934 0.24634728 -0.12440443 -0.03381424 -0.106855325 0.17643306 -0.2697872
-0.20339178 0.08651048 -0.1479643 -0.0632914 -0.054365296 0.041409604 -0.060340155 -0.25230244
-0.041813478 0.0472859 0.0024411369 -0.09591527 0.13721277 0.024588302 -0.13906857 0.1981935
0.052444883 -0.09661699 0.16939805 -0.023194168 -0.17564113 -0.21107253 -0.22556125 -0.06861913
-0.3520723 -0.05107039 -0.04301776 0.1758272 -0.14934492 0.021833353 -0.07861666 0.1077847
0.043509077 0.10932363 0.20130233 -0.062178273 -0.014859277 0.0831211 -0.15333666 0.02710888
0.13136558 -0.045405414 -0.18215865 0.211727 -0.2009492 -0.22961245 -0.026662083 -0.11299352
0.16271558 0.035235193 -0.20160653 -0.21901596 -0.10290674 -0.12999563 0.11394314 -0.21323
-0.017412828 -0.09297314 -0.21585652 -0.103529245 0.025425076 0.14777818 -0.094985254 0.1375987
-0.13144457 0.0619905 -0.070414126 0.08679668 0.037014466 -0.026805049 -0.029661607 -0.06777038
0.12489109 0.05649618 -0.18105884 -0.013119542 0.057195738 0.16237204 0.0044495948 -0.16184737
0.14946645 -0.063218944 0.021288743 0.13365738 0.027174847 -0.16892387 -0.13329971 0.09181408
-0.07536089 -0.16138308 0.1022108 0.120061174 -0.025225516 -0.018728234 -0.15103726 0.20385914
0.007991873 0.13352777 -0.04083204 0.020665988 0.22365531 0.08938366 -0.022905027 0.1909279
0.18014713 -0.0064958055 0.13441154 0.10379324 -0.20433722 -0.045028165 -0.26286516 -0.085959315
0.08917766 0.06591138 0.016266635 0.083280936 -0.083003536 -0.039379466 0.089214906 -0.099123806
0.15582962 -0.07467629 -0.13666649 -0.26804617 0.17193519 0.13654232 -0.015738146 -0.12992792
-0.0029904356 -0.096302 -0.22743504 -0.17275271 -0.05625225 -0.02846835 -0.04578714 0.11078552
0.06259902 -0.053086005 -0.054383792 -0.25919038 0.06355176 -0.33599257 0.103411674 0.08480171
-0.15349051 -0.19423994 0.13424861 0.018323444 0.12837748 -0.11660381 -0.09641123 0.07912277
0.032443885 0.26614666 -0.10787699 -0.14750928 0.22740926 0.09807572 -0.06624781 0.0010810096
-0.24692976 -0.1891449 -0.19985649 0.022048062 -0.007467472 0.1605182 -0.11581275 0.02440982
0.10847353 -0.14531782 -0.027092148 -0.04229062 0.070998594 -0.17879413 -0.093832694 -0.27211437
0.06443056 0.17278154 -0.23465005 0.094794735 0.11206152 0.06046516 -0.118402116 0.20661974
-0.17747971 0.095954694 -0.0059321136 0.06753126 -0.19032076 0.2518028 0.10106469 -0.104022376
-0.19104515 0.1593646 0.082870275 -0.109014094 -0.18431956 0.0816705 -0.032132752 0.04054394
-0.17344905 0.108691804 -0.13753964 -0.0075484286 0.01229777 0.072568774 -0.018282834 -0.06076881
0.09216827 -0.28951442 0.12115352 -0.13688445 -0.08025568 -0.097588345 0.04252598 0.050822247
00000000: 3476 28be c1ae 9e3b b3f6 083d e6f2 48bb
00000010: 804f 97bc df79 523e b807 e03d af2a 56ba
00000020: 7e21 aabd 2380 143d 807d a33d 12ce 003e
00000030: 06bf 1e3e 44fe febd 6cf1 c4bd 5692 57be
00000040: adf2 2cbd a31b 0d3d acff 5abd aa8b 5bbe
00000050: 7dbb 05be c34c 45bd 521f 363e cb6e 3fbd
00000060: c130 00be 7c26 053e 2349 003d 4b0a a1bc
00000070: 5519 783e 1e2b 6bbd ba61 32be 4f34 4a3e
00000080: d2b2 e9bd 7aa0 983e 7642 7c3e c0c7 febd
00000090: cd80 0abd f7d6 dabd deaa 343e 8c21 8abe
000000a0: ef45 50be 682c b13d f483 17be ec9e 81bd
000000b0: 25ae 5ebd 1e9d 293d 3d27 77bd c92d 81be
000000c0: 9c44 2bbd dcae 413d 7bfb 1f3b 3a6f c4bd
000000d0: 8181 0c3e 686d c93c fe67 0ebe 3df3 4a3e
000000e0: 72d0 563d 21df c5bd af76 2d3e b201 bebc
000000f0: 45db 33be 6623 58be 87f9 66be 3088 8cbd
00000100: d242 b4be 2f2f 51bd 6433 30bd 0c0c 343e
00000110: e0ed 18be dcdb b23c c501 a1bd 3abe dc3d
00000120: 9336 323d 11e5 df3d 3322 4e3e a5ae 7ebd
00000130: 5374 73bc 653b aa3d 4904 1dbe 7113 de3c
00000140: b384 063e 07fb 39bd cc87 3abe f6ce 583e
00000150: a1c5 4dbe 871f 6bbe 716a dabc 2669 e7bd
00000160: ea9e 263e c752 103d f171 4ebe b845 60be
00000170: c5c0 d2bd 931d 05be 055b e93d f758 5abe
00000180: 59a5 8ebc b468 bebd 7e09 5dbe 2407 d4bd
00000190: 4048 d03c 2a53 173e a187 c2bd ace6 0c3e
000001a0: 6899 06be c0e9 7d3d 4835 90bd 75c2 b13d
000001b0: 7b9c 173d 4396 dbbc e6fc f2bc 32cb 8abd
000001c0: e6c6 ff3d 8a68 673d 7d67 39be 59f3 56bc
000001d0: 1446 6a3d db44 263e e8cd 913b 51bb 25be
000001e0: bc0d 193e ef78 81bd bb65 ae3c 7bdd 083e
000001f0: c99d de3c 61fa 2cbe b87f 08be 0509 bc3d
00000200: cf56 9abd 9b41 25be e553 d13d a2e2 f53d
00000210: bea5 cebc f46b 99bc 83a9 1abe 73c0 503e
00000220: 58f0 023c 81bb 083e 7f3f 27bd b84b a93c
00000230: e605 653e c80e b73d 53a3 bbbc 9a82 433e
00000240: 7d78 383e c4da d4bb 2ea3 093e 8d91 d43d
00000250: c73d 51be 746f 38bd 4396 86be 700b b0bd
00000260: c7a2 b63d 8cfc 863d 9b41 853c 328f aa3d
00000270: c2fd a9bd 5d4c 21bd 4eb6 b63d 6c01 cbbd
00000280: cd91 1f3e e2ef 98bd 4df2 0bbe 593d 89be
00000290: c70f 303e c0d1 0b3e 49ed 80bc d30b 05be
000002a0: 2ffb 43bb fc39 c5bd bbe4 68be 16e6 30be
000002b0: c268 66bd 7536 e9bc 4c8b 3bbd 85e3 e23d
000002c0: ea33 803d b670 59bd 8ac1 5ebd 9ab4 84be
000002d0: 6d27 823d 3807 acbe 80c9 d33d 85ac ad3d
000002e0: 9e2c 1dbe d6e6 46be 7878 093e 0c1b 963c
000002f0: 6375 033e facd eebd 4073 c5bd 1e0b a23d
00000300: e1e3 043d 6044 883e 9dee dcbd ac0c 17be
00000310: f9dd 683e ecdb c83d efac 87bd aab0 8d3a
00000320: 28db 7cbe 33af 41be 2ea7 4cbe 239e b43c
00000330: b2b1 f4bb e25e 243e 3c2f edbd 1af7 c73c
00000340: 5f27 de3d 32ce 14be 5af0 ddbc ee38 2dbd
00000350: b667 913d cf15 37be 5b2b c0bd 9352 8bbe
00000360: 2bf4 833d a5ed 303e 1a48 70be be23 c23d
00000370: 8380 e53d 51aa 773d cf7c f2bd 2094 533e
00000380: 3ebd 35be e583 c43d 2d62 c2bb d44d 8a3d
00000390: 72e3 42be 4cec 803e 01fb ce3d af09 d5bd
000003a0: 57a1 43be 7930 233e e4b7 a93d c842 dfbd
000003b0: 44be 3cbe dd42 a73d a29d 03bd 6711 263d
000003c0: a19c 31be cf99 de3d 31d7 0cbe cf58 f7bb
000003d0: 967c 493c f09e 943d e2c5 95bc b7e8 78bd
000003e0: b8c2 bc3d 3c3b 94be 561f f83d 702b 0cbe
000003f0: 175d a4bd 66dc c7bd b92f 2e3d fd2a 503d

hidden.2.bias f4 [30]
-0.10909971 0.05835802 -0.14198999 -0.09682592 0.14305614 -0.089494914 -0.040018894 -0.14369656
-0.117952965 0.17438555 0.17471074 -0.12089143 0.15265101 -0.024223333 -0.0003247913 -0.07700026
-0.08881138 0.06833437 0.08913691 -0.10398792 -0.057711605 0.12674244 -0.18531252 -0.104305685
0.14905554 0.015871707 -0.15823786 0.15642297 0.12792902 -0.18536593
00000000: ab6f dfbd d208 6f3d d365 11be ab4c c6bd
00000010: 4f7d 123e 1c49 b7bd daea 23bd 3125 13be
00000020: 5391 f1bd 2092 323e 5fe7 323e ed95 f7bd
00000030: 8c50 1c3e 0370 c6bc c048 aab9 50b2 9dbd
00000040: bee2 b5bd e4f2 8b3d 6a8d b63d 9ef7 d4bd
00000050: 0163 6cbd c5c8 013e 91c2 3dbe 389e d5bd
00000060: 04a2 183e 6205 823c 1b09 22be 582d 203e
00000070: d3ff 023e 91d0 3dbe

hidden.3.weight f4 [30, 30]
-0.07388888 -0.08285333 0.019647017 -0.072661534 -0.0835605 0.15936448 -0.2953842 0.08914862
0.19946702 -0.24303062 0.15047379 0.08888066 -0.10325523 0.17939644 -0.320694 0.10703534
-0.025077095 -0.17033632 0.28184715 0.24635766 0.26799777 -0.021682965 -0.004377299 0.031114737
0.016188974 0.05554943 -0.009133293 -0.23964053 -0.037904117 0.108884275 -0.012236027 0.11993502
-0.017368663 0.1514482 0.1496424 0.0052874163 0.11680464 -0.1167094 -0.17547973 0.2262249
0.11669376 0.13001423 0.01211028 0.04387485 -0.16482544 -0.048116684 -0.19955416 0.086835206
0.20632975 -0.24565819 0.2942196 -0.118613526 -0.17119984 0.17648989 0.09438175 0.20968947
-0.15785898 -0.061543297 -0.18677318 -0.07111966 0.076869994 -0.26062056 0.16453679 0.09829677
-0.0077780085 -0.09972756 0.0034776581 0.17491792 0.07916195 0.25702235 0.170391 -0.17340621
-0.022387456 0.021303384 -0.07873437 -0.014241512 0.16474584 0.18578237 0.301444 -0.009403713
-0.22467023 0.24263717 -0.09574466 0.1254923 0.13863719 -0.18880849 -0.021978179 0.14545183
0.22539482 -0.09325846 0.21083952 -0.20064358 -0.015005257 -0.14473037 -0.084852755 -0.019972606
-0.2363787 0.03782304 -0.17548509 -0.14117964 -0.08924198 -0.17016716 0.112358615 -0.10153987
-0.08608531 -0.0026553099 0.16811584 0.061526936 0.06816113 0.05714385 -0.28080872 -0.086780265
0.0957629 0.0849319 0.10055183 -0.024700355 -0.07491382 0.16616918 0.088332444 -0.14387728
-0.16946885 -0.25832203 -0.06684225 -0.12227948 0.25627184 -0.18048988 -0.16140042 0.15694943
-0.012471202 0.20204525 0.15003304 -0.021628596 -0.08764836 -0.20493025 0.14434122 0.010384762
0.060858253 0.042382598 0.42097908 -0.028767806 0.118273176 0.13451155 0.0007038564 0.22742319
0.13098897 -0.13943195 -0.17513102 0.12187759 -0.026032329 0.019649606 0.02623851 -0.016699871
-0.2817357 0.21600756 0.002475906 0.02155036 -0.1868011 0.09479497 -0.119497284 -0.1229996
-0.067490764 0.3702429 -0.103278644 0.07755752 -0.07124854 -0.0164934 -0.20569028 -0.24163674
0.03324225 -0.20317082 0.31074736 -0.2755629 -0.06653896 -0.18358143 0.0984518 -0.093353584
0.08358754 0.033108186 -0.26782706 -0.08098578 0.13785018 0.1285774 0.14699988 0.29350263
0.058686014 0.19533093 0.13013048 0.17408256 0.2244203 -0.15198883 -0.13928643 0.33546743
-0.039167475 -0.13679267 -0.11774647 -0.33412924 -0.08109484 0.24652591 -0.3383409 0.2364222
0.19178635 -0.22738552 -0.2162935 -0.18699238 -0.026591932 0.016588746 0.116693474 -0.18457246
0.37613994 0.059090726 0.033060662 0.15745579 -0.16608946 -0.112527855 0.07135551 -0.014945804
-0.16086356 -0.047583226 -0.15231551 0.021649903 -0.15166399 -0.03588031 0.14459518 -0.108685926
-0.14532834 0.09683056 0.13787717 -0.10426449 -0.08579679 0.1953073 -0.29036713 0.12507996
-0.09157029 0.0036905825 -0.061871905 -0.029994782 0.08839133 -0.09145771 -0.18586752 0.06965296
-0.11747837 0.18507637 0.058552086 0.10249629 0.03086653 0.06252949 0.17963232 0.109593734
0.06417038 0.09186793 0.09960084 0.18820445 -0.038140245 -0.25875843 -0.1398288 -0.19858101
00000000: 0e53 97bd 02af a9bd c8f2 a03c 92cf 94bd
00000010: c421 abbd 7130 233e 993c 97be 8d93 b63d
00000020: 1541 4c3e 05dd 78be cd15 1a3e 1007 b63d
00000030: 7a77 d3bd b3b3 373e 0132 a4be 5835 db3d
00000040: 7b6e cdbc a56c 2ebe 454e 903e 2f45 7c3e
00000050: 0137 893e 79a0 b1bc 726f 8fbb 55e4 fe3c
00000060: bd9e 843c cd87 633d cfa3 15bc 5464 75be
00000070: 5941 1bbd b8fe de3d 9e79 48bc 7ea0 f53d
00000080: ba48 8ebc 3d15 1b3e db3b 193e 1042 ad3b
00000090: 4537 ef3d 5705 efbd f5b0 33be 80a7 673e
000000a0: 23fd ee3d 7322 053e 326a 463c 1db6 333d
000000b0: 00c8 28be 0016 45bd ed57 4cbe a8d6 b13d
000000c0: 1b48 533e d28d 7bbe f4a3 963e a6eb f2bd
000000d0: 034f 2fbe c4b9 343e 384b c13d d6b8 563e
000000e0: c9a5 21be d314 7cbd 7841 3fbe 2fa7 91bd
000000f0: 046e 9d3d 0f70 85be 557c 283e d14f c93d
00000100: aade febb f73d ccbd 6ce9 633b af1d 333e
00000110: a91f a23d 6f98 833e fa7a 2e3e 6691 31be
00000120: e665 b7bc 6f84 ae3c 7c3f a1bd 3b55 69bc
00000130: 22b3 283e bc3d 3e3e de56 9a3e 0812 1abc
00000140: f40f 66be e175 783e c715 c4bd 0e81 003e
00000150: e8f6 0d3e 0357 41be 950b b4bc 53f1 143e
00000160: e6cd 663e 4bfe bebd 51e6 573e 8375 4dbe
00000170: 9cd8 75bc 3334 14be 48c7 adbd 979d a3bc
00000180: 420d 72be 55ec 1a3d 5db2 33be 6591 10be
00000190: 80c4 b6bd 4d40 2ebe 461c e63d 23f4 cfbd
000001a0: 7f4d b0bd b504 2ebb 8f26 2c3e ab03 7c3d
000001b0: 1098 8b3d ab0f 6a3d 29c6 8fbe dab9 b1bd
000001c0: 571f c43d c7f0 ad3d 1eee cd3d 6658 cabc
000001d0: 6b6c 99bd 4128 2a3e a4e7 b43d 9154 13be
000001e0: 3e89 2dbe c942 84be 97e4 88bd aa6d fabd
000001f0: 1036 833e 57d2 38be 2746 25be 5ab7 203e
00000200: 0354 4cbc f3e4 4e3e 43a2 193e 742e b1bc
00000210: fc80 b3bd 3cd9 51be 2fce 133e d924 2a3c
00000220: 8146 793d 6099 2d3d 928a d73e 76aa ebbc
00000230: 3539 f23d 65bd 093e 0183 383a a0e1 683e
00000240: f921 063e 40c7 0ebe 8c55 33be f59a f93d
00000250: c041 d5bc 36f8 a03c 25f2 d63c 2bce 88bc
00000260: a93f 90be 1631 5d3e cf42 223b 618a b03c
00000270: ca48 3fbe dd23 c23d feba f4bd 37e7 fbbd
00000280: 9938 8abd 7a90 bd3e c183 d3bd 7ad6 9e3d
00000290: c1ea 91bd 2b1d 87bc 79a0 52be 9f6f 77be
000002a0: 0729 083d 030c 50be 471a 9f3e 9516 8dbe
000002b0: 9445 88bd c5fc 3bbe 19a1 c93d 2a30 bfbd
000002c0: f22f ab3d 739c 073d a120 89be dfdb a5bd
000002d0: 9928 0d3e cba9 033e 2387 163e fa45 963e
000002e0: bf60 703d d504 483e ed40 053e b342 323e
000002f0: 6fce 653e f6a2 1bbe 1aa1 0ebe 63c2 ab3e
00000300: 136e 20bd 6113 0cbe 1025 f1bd fd12 abbe
00000310: 0d15 a6bd 4a71 7c3e 053b adbe a918 723e
00000320: a463 443e c0d7 68be 0b7c 5dbe ee7a 3fbe
00000330: 53d7 d9bc 1fe5 873c fdfc ee3d 9000 3dbe
00000340: 6a95 c03e 1e09 723d 9e6a 073d 173c 213e
00000350: 5b13 2abe 0175 e6bd d622 923d 3fdf 74bc
00000360: 6bb9 24be a1e6 42bd 99f8 1bbe 235b b13c
00000370: ce4d 1bbe 3bf7 12bd c210 143e ba96 debd
00000380: f4d0 14be 1a4f c63d ac2f 0d3e 9f88 d5bd
00000390: 3ab6 afbd a3fe 473e 00ab 94be f614 003e
000003a0: 3489 bbbd b3dd 713b 656d 7dbd 9eb7 f5bc
000003b0: 8306 b53d 2e4e bbbd 0e54 3ebe 36a6 8e3d
000003c0: 8098 f0bd a984 3d3e 50d4 6f3d 93e9 d13d
000003d0: cedb fc3c 760f 803d 89f1 373e ae72 e03d
000003e0: c36b 833d 4125 bc3d 86fb cb3d abb8 403e
000003f0: f238 1cbd fc7b 84be 482f 0fbe d258 4bbe

hidden.3.bias f4 [30]
0.15588678 0.16393904 0.13927764 0.18223602 0.0067781727 0.1642497 -0.0040129493 -0.15179811
-0.18289328 0.14312388 -0.13988103 -0.10887919 -0.14682391 -0.04989497 -0.111532666 -0.13183506
0.11001979 0.008363755 0.027441328 -0.1722035 -0.0062020635 -0.07630381 0.13711902 0.03903401
0.09090827 0.009208052 0.18087672 -0.019354146 0.009067809 0.1316817
00000000: c9a0 1f3e a3df 273e cc9e 0e3e 149c 3a3e
00000010: 6f1b de3b 1331 283e 0f7f 83bb f770 1bbe
00000020: 6048 3bbe 118f 123e f93c 0fbe 0efc debd
00000030: 0259 16be ab5e 4cbd 3d6b e4bd c5ff 06be
00000040: 0e52 e13d 2208 093c a3cc e03c 1d56 30be
00000050: ae3a cbbb 2c45 9cbd ee68 0c3e 20e2 1f3d
00000060: 1d2e ba3d 5fdd 163c bf37 393e 968c 9ebc
00000070: 2691 143c 91d7 063e

hidden.4.weight f4 [30, 30]
-0.093180366 -0.06622426 -0.2705767 0.10145401 -0.27088636 -0.06911138 0.12963872 -0.009232424
-0.02314381 -0.29368693 0.16816738 -0.047769215 -0.035518914 -0.18336143 -0.07568282 0.41529027
-0.18079177 -0.005630762 0.15120277 0.1219842 0.11392338 -0.15324688 0.011402733 0.2846389
-0.111953005 0.15036428 0.15899593 -0.09770803 -0.10138268 -0.21560688 0.0044407374 0.18747559
-0.13044177 -0.15364124 0.16153315 -0.011242545 -0.058744747 -0.0590099 0.21793099 0.1139959
-0.20065345 0.059691638 -0.084762655 -0.083525084 -0.03995896 -0.15219821 0.021111635 -0.15549184
-0.094905175 0.21354099 -0.06531834 0.05607776 0.10828235 -0.21817954 0.18972595 -0.05311411
-0.14637062 0.06501398 -0.037216876 0.006922896 -0.17104079 0.17857967 0.12716371 -0.017525395
0.14385004 -0.17942639 0.010680889 -0.021996276 0.11495437 0.19136225 -0.2745004 -0.19014212
-0.16866758 -0.09647902 0.13702132 -0.32792404 0.13657413 -0.14328556 0.0009390579 0.0266516
0.18564792 0.15219776 0.24234381 -0.10149429 -0.023547024 -0.104842566 0.040617537 -0.13468523
-0.0006269032 0.23242961 0.22927272 0.15773107 0.64326 -0.12260341 0.30911416 -0.14446586
0.007861453 -0.11289874 0.024027012 -0.10733444 -0.040285487 0.0036143053 -0.07901748 0.14397302
-0.14659041 -0.17219226 -0.06740782 -0.21105665 0.019170174 0.052232224 0.13278241 0.15945773
0.08758169 0.10572872 0.17058286 0.14599636 -0.20680863 -0.19347619 0.018023847 0.14568427
-0.043943115 0.029674664 -0.4103321 -0.15959571 -0.28355065 0.1353088 0.09461656 -0.11278311
0.042379715 -0.048550397 0.12404534 -0.01345512 -0.03223602 -0.15870814 0.0953599 0.45870417
0.013123048 0.11765288 0.063001156 0.20490958 -0.061671626 -0.044345863 0.16751695 -0.3253788
0.2126124 0.067571916 0.059031818 0.22432275 -0.07990845 -0.01728202 0.2025311 -0.14120148
-0.3290226 -0.13155961 -0.068963096 -0.03430404 0.14755484 0.2362557 -0.115788445 0.08497886
0.15379788 0.10823699 -0.050931167 -0.20118764 0.04786817 0.4047933 -0.0059757032 0.38010547
-0.022579692 -0.04856358 -0.20782588 0.046542842 -0.21615106 0.21302831 0.009723758 0.0019159061
-0.032924827 -0.033909854 0.23114774 0.07030113 -0.25305274 -0.04999122 -0.5042971 -0.13766971
-0.08276735 0.015417491 0.17890373 0.15633342 -0.20984569 -0.17947456 0.22444755 0.12268785
-0.05709153 -0.029471641 0.15952696 0.09214343 -0.08633693 -0.17703912 0.10324346 -0.08760886
-0.19638447 0.079510376 -0.1119962 0.13265546 0.15826285 -0.17340842 -0.0861004 0.06808381
0.19134748 -0.08474694 -0.060400255 -0.06524967 -0.40516344 -0.077343896 -0.06711887 -0.09091378
-0.23538864 -0.006553306 -0.15970618 -0.08428551 0.3357542 -0.13843115 0.15213802 -0.20731954
-0.08213905 0.29814458 0.16503365 0.2367767 0.19914004 -0.1862696 -0.18670972 -0.1466516
-0.11332123 0.10847031 0.124842405 0.04336821 0.0018947555 0.17035304 0.12454821 -0.031362273
-0.1527507 0.06795583 -0.11279711 0.21243018 -0.047104467 -0.029831098 0.12618124 0.15800412
-0.09557853 -0.2860419 0.028809393 0.0027796386 0.03539573 0.10630845 -0.18804173 0.1944574
00000000: 59d5 bebd 96a0 87bd 0789 8abe 1fc7 cf3d
00000010: 9eb1 8abe 448a 8dbd 03c0 043e 9843 17bc
00000020: 1698 bdbc 225e 96be 1234 2c3e a7a9 43bd
00000030: 487c 11bd 19c3 3bbe 98ff 9abd eda0 d43e
00000040: 7a21 39be 4182 b8bb e6d4 1a3e dad2 f93d
00000050: a950 e93d c0ec 1cbe 87d2 3a3c 31bc 913e
00000060: 9e47 e5bd 18f9 193e d4cf 223e 261b c8bd
00000070: b9a1 cfbd 0dc8 5cbe 9b83 913b 9af9 3f3e
00000080: 8792 05be 2154 1dbe f268 253e a732 38bc
00000090: 559e 70bd 5db4 71bd 4d29 5f3e af76 e93d
000000a0: 1978 4dbe 387f 743d 0b98 adbd 330f abbd
000000b0: 02ac 23bd d9d9 1bbe 4ff2 ac3c 4139 1fbe
000000c0: a55d c2bd 7daa 5a3e 9fc5 85bd cbb1 653d
000000d0: 23c3 dd3d 756a 5fbe 8547 423e 2e8e 59bd
000000e0: 2ee2 15be 0d26 853d b970 18bd 76d9 e23b
000000f0: 5125 2fbe 97dd 363e 3437 023e 6b91 8fbc
00000100: 6d4d 133e 8dbb 37be e5fe 2e3c 8931 b4bc
00000110: 326d eb3d 77f4 433e 518b 8cbe 9eb4 42be
00000120: 32b7 2cbe cb96 c5bd 514f 0c3e a9e5 a7be
00000130: 17da 0b3e 73b9 12be 1c2b 763a 7554 da3c
00000140: 7d1a 3e3e bbd9 1b3e fa28 783e 3ddc cfbd
00000150: b0e5 c0bc b3b7 d6bd 935e 263d edea 09be
00000160: c356 24ba 0702 6e3e 78c6 6a3e 4184 213e
00000170: b0ac 243f 7f17 fbbd 3644 9e3e dcee 13be
00000180: 53cd 003c 7437 e7bd 4cd4 c43c 29d2 dbbd
00000190: 6502 25bd fbdd 6c3b ebd3 a1bd aa6d 133e
000001a0: cc1b 16be 2b53 30be 1c0d 8abd 3c1f 58be
000001b0: c50a 9d3c 75f1 553d 1df8 073e e348 233e
000001c0: 075e b33d 4d88 d83d 46ad 2e3e 1280 153e
000001d0: a4c5 53be 9f1e 46be bfa6 933c 422e 153e
000001e0: b2fd 33bd 4818 f33c 0d17 d2be 0f6d 23be
000001f0: 8d2d 91be 648e 0a3e 54c6 c13d d5fa e6bd
00000200: 5a96 2d3d c8dc 46bd 7c0b fe3d dd72 5cbc
00000210: eb09 04bd 6384 22be 0d4c c33d 46db ea3e
00000220: 0d02 573c fef3 f03d c006 813d d1d3 513e
00000230: 639b 7cbd 02a4 35bd 9089 2b3e 0d98 a6be
00000240: 11b7 593e 2563 8a3d 59cb 713d ddb4 653e
00000250: 0ba7 a3bd 0693 8dbc 5064 4f3e 1f97 10be
00000260: a675 a8be 90b7 06be 863c 8dbd 6582 0cbd
00000270: 9e18 173e 04ed 713e 7e22 edbd 6609 ae3d
00000280: 317d 1d3e 5bab dd3d 339d 50bd 2204 4ebe
00000290: 6a11 443d 1141 cf3e d5cf c3bb 2f9d c23e
000002a0: 0cf9 b8bc 9bea 46bd 4fd0 54be b5a3 3e3d
000002b0: b456 5dbe 1824 5a3e 6650 1f3c 241f fb3a
000002c0: 2fdc 06bd 0fe5 0abd feb1 6c3e 0afa 8f3d
000002d0: 2190 81be 98c3 4cbd 9d19 01bf 4af9 0cbe
000002e0: ee81 a9bd a599 7c3c 8a32 373e de15 203e
000002f0: cae1 56be 2ec8 37be 94d5 653e c443 fb3d
00000300: cfd8 69bd 836e f1bc 095b 233e b2b5 bc3d
00000310: 6bd1 b0bd be49 35be 4f71 d33d 466c b3bd
00000320: 0319 49be 56d6 a23d 445e e5bd d5d6 073e
00000330: a80f 223e fa91 31be 6855 b0bd 866f 8b3d
00000340: 98f0 433e ce8f adbd 4266 77bd 9ea1 85bd
00000350: 9571 cfbe 7a66 9ebd 9e75 89bd 0131 babd
00000360: b809 71be 1dbd d6bb 048a 23be e29d acbd
00000370: f9e7 ab3e e5c0 0dbe 12ca 1b3e 934b 54be
00000380: 8538 a8bd 68a6 983e 95fe 283e 9775 723e
00000390: 5eeb 4b3e 75bd 3ebe d530 3fbe d62b 16be
000003a0: f614 e8bd af25 de3d 60ad ff3d dda2 313d
000003b0: 7259 f83a 0771 2e3e 2213 ff3d ba75 00bd
000003c0: ae6a 1cbe 6d2c 8b3d 2c02 e7bd 4c87 593e
000003d0: 9df0 40bd 5960 f4bc a835 013e d5cb 213e
000003e0: adbe c3bd 1574 92be ad01 ec3c 992a 363b
000003f0: 1dfb 103d 3fb8 d93d 038e 40be d71f 473e

hidden.4.bias f4 [30]
0.057132382 0.11386287 0.041512676 -0.07669039 0.11384858 0.058878187 0.0331506 0.09802308
-0.068594575 0.15459917 -0.13685831 0.041455217 0.039506678 -0.06116022 -0.035618644 -0.14341474
-0.03492195 -0.058827303 0.11398012 0.060637966 0.039799158 0.083412774 0.061131384 0.062542945
0.07739353 0.110436656 -0.07260762 0.1720988 -0.06102443 -0.06822433
00000000: a503 6a3d f030 e93d 3209 2a3d da0f 9dbd
00000010: 7229 e93d 412a 713d ecc8 073d 53c0 c83d
00000020: 507b 8cbd 3f4f 1e3e 9624 0cbe f2cc 293d
00000030: c1d1 213d 2483 7abd dbe4 11bd 50db 12be
00000040: 520a 0fbd e6f4 70bd 696e e93d 845f 783d
00000050: 7104 233d 51d4 aa3d e764 7a3d 8416 803d
00000060: 8080 9e3d 9d2c e23d 4eb3 94bd ab3a 303e
00000070: c1f4 79bd 33b9 8bbd

hidden.5.weight f4 [30, 30]
0.21886648 -0.26751354 -0.2437441 0.09871134 -0.101933174 0.14568734 -0.10897729 0.17406774
0.100979604 0.05754624 -0.15792148 0.45439097 0.019816874 0.060809128 0.04168115 -0.042580977
-0.013496663 -0.16472492 -0.14665252 -0.15678865 -0.13639998 0.12617563 0.23996726 0.07211514
-0.18302275 0.21636812 0.3233051 -0.36391 0.22539857 0.119296916 -0.04216743 -0.28247225
-0.1753568 0.021849444 -0.1048586 0.044711873 -0.007579048 -0.04385789 0.27141377 -0.016451456
-0.1116986 0.031498387 0.02117703 -0.25863963 -0.1496328 -0.25576666 -0.19079295 0.16119477
0.061055377 -0.16045384 -0.26236168 -0.057577014 0.16385373 -0.18768594 0.1012626 -0.06369535
0.07171791 0.3015734 0.22120173 -0.05728841 0.0031837951 -0.07251815 0.0025015909 -0.23510006
0.071248695 0.16237044 0.079785176 0.033878326 0.24320586 0.10282947 0.13814496 0.18717363
0.110975616 -0.028787037 0.1454959 -0.04678538 -0.10000323 -0.100483015 -0.17241326 -0.13413154
-0.12770699 -0.14224097 0.0632913 0.14884344 -0.026550837 0.14114723 0.2136309 -0.27471465
0.12042987 0.35742715 0.21521372 -0.10675446 -0.0037285483 -0.26206097 -0.16467695 0.26384127
0.039308798 0.17925936 -0.12229559 -0.0122447405 0.13552463 0.5691898 -0.14301783 0.40965536
0.1306139 -0.04686255 0.1875909 -0.020186067 -0.061857868 -0.5154601 -0.15706189 0.06359173
0.07682932 -0.14414501 0.074309394 0.035684105 0.6910825 -0.37377855 0.48430437 0.41685355
0.32304206 -0.08871196 -0.24961416 0.03999777 0.23947647 0.09462353 -0.10301981 -0.07156859
0.13594295 -0.0052312184 -0.030210188 0.40265656 0.020503055 0.40810698 -0.1108441 0.03995247
0.21478306 -0.10267632 0.068186104 -0.07513173 -0.15414925 0.10330513 -0.017053653 -0.037756708
-0.22230239 0.050665963 0.061536193 -0.27910304 -0.007644069 0.2747391 0.071410015 0.2299141
0.15451011 -0.04341091 0.049539562 -0.133176 -0.18277292 -0.07210453 -0.06604591 -0.03379058
0.21585324 0.17441937 -0.07395557 0.21908022 0.0040629935 0.21352395 -0.064082496 0.0028896597
0.042149197 0.15582219 -0.11988877 0.13721411 -0.06442355 0.21082965 0.07495816 -0.08266979
-0.23907214 -0.323385 -0.15978003 -0.19269142 0.14414442 0.12172165 0.21532087 0.2359163
-0.014926389 -0.30813017 -0.13603376 -0.0667505 -0.119027205 0.095778584 -0.15257342 -0.011893919
-0.06995517 -0.28298637 0.12164094 -0.2428212 -0.14486754 -0.026811933 0.15716025 0.06543707
0.04425223 -0.24623692 0.0017304645 0.1166357 -0.11135722 0.17426512 -0.329701 0.1703793
0.07981993 0.18702167 0.20613314 -0.14313197 -0.27597764 -0.10530924 0.16280216 0.1702275
0.1501604 -0.13322182 0.11225978 -0.2149908 0.06725797 0.03630059 -0.08707524 0.07645562
-0.19624579 0.09762566 -0.05542455 0.17429338 0.101284616 0.023186384 -0.18246548 -0.05758656
0.088601544 -0.3399561 0.0020282043 0.15946332 0.061753694 0.13011152 0.23139521 -0.09710392
0.054705374 -0.25771442 0.06258091 -0.0887858 -0.242945 -0.19327892 0.008522496 0.1307578
0.0133904675 0.07641822 0.07674557 -0.23592378 -0.041709326 -0.08361656 0.20894252 -0.19145422
00000000: 891e 603e 89f7 88be 0e98 79be 2c29 ca3d
00000010: 57c2 d0bd 102f 153e 7c2f dfbd d03e 323e
00000020: 65ce ce3d 9bb5 6b3d 2bb6 21be efa5 e83e
00000030: ff56 a23c fe12 793d dbb9 2a3d 6469 2ebd
00000040: 1c21 5dbc a6ad 28be 142c 16be 348d 20be
00000050: 70ac 0bbe 2f34 013e fab9 753e 1ab1 933d
00000060: 516a 3bbe 9b8f 5d3e 3f88 a53e 6952 babe
00000070: e2ce 663e f151 f43d c1b7 2cbd 34a0 90be
00000080: bc90 33be 9bfd b23c 1bc0 d6bd cc23 373d
00000090: aa59 f8bb 55a4 33bd bff6 8a3e 34c5 86bc
000000a0: 3cc2 e4bd 7404 013d 737b ad3c 6a6c 84be
000000b0: 5739 19be d9f3 82be 3a5f 43be 3e10 253e
000000c0: 3415 7a3d 034e 24be 4554 86be e0d5 6bbd
000000d0: 46c9 273e be30 40be c462 cf3d b572 82bd
000000e0: d7e0 923d d467 9a3e b582 623e 40a7 6abd
000000f0: 38a7 503b 6584 94bd bbf1 233b 12be 70be
00000100: d6ea 913d 7044 263e 6966 a33d 00c4 0a3d
00000110: f50a 793e 4298 d23d df75 0d3e 72aa 3f3e
00000120: 2f47 e33d cbd2 ebbc e1fc 143e 07a2 3fbd
00000130: 7ece ccbd 0aca cdbd 1a8d 30be c759 09be
00000140: 9fc5 02be 9ea7 11be de9e 813d 6a6a 183e
00000150: 2481 d9bc e688 103e 0fc2 5a3e 66a7 8cbe
00000160: f0a3 f63d b100 b73e fc60 5c3e 15a2 dabd
00000170: a95a 74bb db2c 86be 13a1 28be 3416 873e
00000180: 4302 213d c48f 373e 1c76 fabd 2a9e 48bc
00000190: f8c6 0a3e 6cb6 113f 4473 12be 59be d13e
000001a0: a6bf 053e f2f2 3fbd d417 403e 405d a5bc
000001b0: ad5e 7dbd 31f5 03bf d5d4 20be 623c 823d
000001c0: b158 9d3d c09a 13be 862f 983d 7f29 123d
000001d0: c8ea 303f e75f bfbe bef6 f73e d46d d53e
000001e0: c565 a53e 9eae b5bd db9a 7fbe b4d4 233d
000001f0: 5239 753e fbc9 c13d 0dfc d2bd 8e92 92bd
00000200: a134 0b3e a46a abbb 5b7b f7bc 0029 ce3e
00000210: 06f6 a73c 66f3 d03e 3b02 e3bd 34a5 233d
00000220: 17f0 5b3e f647 d2bd 28a5 8b3d aade 99bd
00000230: 4dd9 1dbe a491 d33d 1ab4 8bbc c7a6 1abd
00000240: 3da3 63be 1d87 4f3d 600d 7c3d 98e6 8ebe
00000250: 197b fabb 9aaa 8c3e 6a3f 923d 9a6e 6b3e
00000260: e637 1e3e a3cf 31bd ffe9 4a3d 4a5f 08be
00000270: d328 3bbe 8aab 93bd 1443 87bd fe67 0abd
00000280: a208 5d3e fe9a 323e 0576 97bd 9156 603e
00000290: dc22 853b 06a6 5a3e af3d 83bd 7260 3d3b
000002a0: a3a4 2c3d da8f 1f3e 3e88 f5bd db81 0c3e
000002b0: 7ff0 83bd bae3 573e aa83 993d c74e a9bd
000002c0: 54cf 74be b892 a5be 609d 23be e650 45be
000002d0: 989a 133e 3349 f93d 137d 5c3e 0b94 713e
000002e0: d08d 74bc 3dc3 9dbe 6f4c 0bbe 7cb4 88bd
000002f0: 89c4 f3bd 9027 c43d 353c 1cbe b6de 42bc
00000300: a844 8fbd 97e3 90be e31e f93d 1fa6 78be
00000310: 2858 14be b3a4 dbbc 9eee 203e df03 863d
00000320: d441 353d 8825 7cbe c1d0 e23a b3de ee3d
00000330: 410f e4bd 8e72 323e 92ce a8be e977 2e3e
00000340: a278 a33d 9c82 3f3e 9114 533e 3091 12be
00000350: f14c 8dbe 5fac d7bd 9cb5 263e 1e50 2e3e
00000360: a6c3 193e 4d6b 08be 75e8 e53d 8c26 5cbe
00000370: 8cbe 893d edaf 143d 8154 b2bd c494 9c3d
00000380: a8f4 48be f6ef c73d da04 63bd f779 323e
00000390: 4f6e cf3d 5ff1 bd3c 3bd8 3abe e2df 6bbd
000003a0: ba74 b53d ba0e aebe 9feb 043b 5a4a 233e
000003b0: 71f1 7c3d f43b 053e def2 6c3e 6cde c6bd
000003c0: be12 603d 25f3 83be 6c2a 803d 54d5 b5bd
000003d0: 93c6 78be e9ea 45be f0a1 0b3c 5fe5 053e
000003e0: b163 5b3c 2881 9c3d c82c 9d3d 0196 71be
000003f0: 66d7 2abd 293f abbd 07f5 553e 930c 44be

hidden.5.bias f4 [30]
0.013663397 -0.056237075 -0.10780698 -0.16959149 -0.093489096 -0.07481718 0.05446887 -0.036246598
0.044075992 -0.010347636 0.14691694 -0.115246125 0.16260713 -0.058530066 0.12356407 -0.14053942
-0.11514711 -0.10204573 0.08128949 -0.11219247 -0.07332731 0.12548006 -0.13893357 -0.15387739
-0.10020466 0.0625716 0.047502447 -0.16968359 -0.13277724 0.08911609
00000000: 71dc 5f3c d958 66bd e8c9 dcbd 64a9 2dbe
00000010: 3677 bfbd c039 99bd c01a 5f3d 5077 14bd
00000020: 0789 343d 2289 29bc 6571 163e 2906 ecbd
00000030: 7c82 263e 39bd 6fbd 290f fd3d 91e9 0fbe
00000040: 3fd2 ebbd 5afd d0bd 1b7b a63d 2ac5 e5bd
00000050: a12c 96bd d87d 003e 9a44 0ebe 0992 1dbe
00000060: 1a38 cdbd 8a25 803d ed91 423d 89c1 2dbe
00000070: c2f6 07be 7f82 b63d
